edgeric-v2/muApp4/trained_model_embb.pt (torch, 4039 bytes, 5 tensors)

linear1.weight f4 [32, 5]
00000000: 38ef 033f 9211 1540 39c6 8cbe 2044 373f
00000010: 8f10 f13f 177f 2cbf dde0 72bf 5e78 05bf
00000020: 8922 e2be 5403 93bf a4d7 c23e 0d42 d13f
00000030: e0c1 17bd 8c59 8e3c 635a f83f ebce 0ebf
00000040: 458d 19be be69 dbbe a216 34bf 5dec c2be
00000050: d0b6 5d3c 957e f13f fa9d bbbe 64c9 2b3f
00000060: cb23 d23f 401e 53be 0650 01be e6ac 89be
00000070: c8e3 2c3d f726 e2be c9eb dcbd fd42 64bf
00000080: c573 2abe fde7 dfbe 1f2e 28bf 231e 893e
00000090: 2ad4 c03f 2ae3 4cbd f3f6 c6bd c16b a23f
000000a0: 41cf dc3d c546 bd3f 639a 68be f2d1 d63e
000000b0: 31d0 ef3f 12e4 27be 6d4b 0c40 0a95 fbbd
000000c0: 324d 003f e3f9 d63f 317f 84bf 4ee5 43bf
000000d0: 9476 6fbf 3be3 66be b35f edbe 8ae0 c73e
000000e0: 2b6c 0040 e65e 36be c73d 2c3f d01a d63f
000000f0: ed36 4c3e dc11 c83f d80b 9abd b9b6 0b3e
00000100: 38ec 0640 01da 23bf 9969 88bd 0ad1 4fbf
00000110: 6d47 50bf 7248 50bf ee48 563f f616 be3e
00000120: cd61 ab3f 4cfb 553b 59a3 3a3f 8f3b 71bf
00000130: 34ad 64bf 9f8d d2be e255 ddbe bc21 62be
00000140: cc7e 6cbe 0618 9cbe fcf9 723e a81a 39be
00000150: 2af8 8a3e 0a3a 1dbe 999d 0f40 7b76 0abf
00000160: af58 babc 5741 0540 20a8 9c3e c0a7 ee3f
00000170: 36e2 d13d 5d65 393f ddc9 d83f b27b 74be
00000180: 86a9 d13e ae86 1abe 8059 22be ab8d ddbe
00000190: 5020 83be b31e f6be 88c8 71bd 6435 a6be
000001a0: e0de 2b3c f691 55bf 897f 68bf 8ca0 903e
000001b0: 6591 6bbf 1344 50bf a81f 54bd 5c85 03bf
000001c0: bc61 223f 0947 6abf 72de 4abf 246e 18be
000001d0: 2038 8f3d 827a c9be 2051 45be 4414 89be
000001e0: 0071 a23a ff42 42bf c0de fdbc be28 9bbe
000001f0: 8c2a 9dbe 0eca 05bf 3c28 24bf 03c5 3ebf
00000200: 5d3a 93be d36f 43bf 43fd df3e 8d5c f63f
00000210: 9a62 1fbf a312 ec3e 9854 e03f dfbe c93e
00000220: 8428 6cbf 4388 eb3d e011 afbe a321 25bf
00000230: 0c4a 323e fae8 bbbe 1aff a93e 2914 a8be
00000240: 8026 9ebd ce95 003e 60e8 e83f f352 873d
00000250: 8b59 bd3e 05ee b43f 7304 d3be 7f90 37bf
00000260: 71d7 12bf 6d03 5cbf 2452 f0bd 22ac 89bf
00000270: b863 31be 1a17 0bbf 832e 8bbe ff9f 23bf
0.51536894 2.3291974 -0.27494982 0.71588326 1.8833178 -0.67381424 -0.94874364 -0.5213679
-0.44166973 -1.1485391 0.38055146 1.6348282 -0.037050128 0.017376684 1.9402584 -0.5578448
-0.14995296 -0.42854112 -0.70347035 -0.38070956 0.013532355 1.8866755 -0.36643964 0.6710417
1.6417173 -0.20617008 -0.12628183 -0.26889724 0.042209417 -0.44170353 -0.1078716 -0.89164716
-0.16645725 -0.4373168 -0.65695375 0.26780805 1.5064747 -0.050021328 -0.097150706 1.2689134
0.10781718 1.4787222 -0.22715144 0.4195705 1.873541 -0.16395596 2.1921036 -0.12284286
0.5011779 1.6795009 -1.0351316 -0.76521766 -0.9354031 -0.22547619 -0.46362075 0.39038497
2.006602 -0.17809638 0.67281765 1.6726933 0.19942828 1.563045 -0.0752179 0.13643922
2.1081676 -0.6400452 -0.06660766 -0.81178343 -0.8135899 -0.8136054 0.8370503 0.37126893
1.3389221 0.0032651005 0.729055 -0.94231504 -0.89326787 -0.41123673 -0.43229586 -0.22083181
-0.23095244 -0.30487078 0.23728174 -0.18076575 0.2714246 -0.15354171 2.243994 -0.54087037
-0.022747366 2.082113 0.3059702 1.8644943 0.102482244 0.72420293 1.6936604 -0.23875311
0.4094965 -0.15090439 -0.15854454 -0.43272147 -0.2561059 -0.48070297 -0.059029132 -0.3246261
0.010490149 -0.83425844 -0.90819603 0.28247488 -0.9201873 -0.81353873 -0.051788002 -0.51375365
0.6343038 -0.9151464 -0.79245675 -0.14885765 0.06993127 -0.3935128 -0.19269228 -0.26773274
0.0012393296 -0.7588348 -0.030990005 -0.3030452 -0.30696523 -0.52261436 -0.6412389 -0.74519366
-0.28755465 -0.76342505 0.4374791 1.9246994 -0.6225983 0.4610797 1.7525816 0.39403436
-0.9224932 0.11500599 -0.34193325 -0.6450445 0.17411059 -0.36701185 0.3320244 -0.3282788
-0.07722187 0.12557146 1.8195915 0.06607618 0.36982378 1.4135138 -0.41214332 -0.7170486
-0.5735999 -0.8594273 -0.11734417 -1.0755656 -0.17323196 -0.54332125 -0.27183923 -0.6391601

linear1.bias f4 [32]
00000000: 53e3 cd3f 02c4 3cbf b044 703f 3a89 63bf
00000010: c2cc b63f 2467 89bd ad74 37bf 2971 8e3f
00000020: 8e7e 803f fece 703f d99b 51bf 7070 983f
00000030: 36e2 b73f 48a8 08bf e179 933e 26de 3ebf
00000040: 6c0f abbe 0bf2 a73f 5e7e cf3f 9490 d7be
00000050: 1724 fabe 5e73 98be b295 07bf 0c16 23be
00000060: dbcf b7be ac1c d8be 1004 9c3f 9368 0cbf
00000070: 9c87 f2bd adaa 6e3f b68b 1abf e42b 0dbf
1.6084999 -0.73736584 0.9385481 -0.88881266 1.4281237 -0.06709126 -0.7166241 1.1128284
1.0038621 0.94065845 -0.8187843 1.1909313 1.4365909 -0.53381777 0.28803924 -0.7455772
-0.33410203 1.3120741 1.6210439 -0.42102492 -0.4885566 -0.29775518 -0.5296279 -0.15926379
-0.3590077 -0.42209375 1.218874 -0.5484707 -0.11842272 0.9322918 -0.6036943 -0.55145097

linear2.weight f4 [8, 32]
00000000: 8c78 f5be 958a e1be 8924 1cbf 601e 22bd
00000010: 9400 17bf 00ef 2cbc 8c13 2e3d 0efb 0abf
00000020: 00c4 40bf b35c 28bf bf1a e3be 8908 06bf
00000030: dae9 19bf 29f2 32bf 427f ddbd 4e33 40bf
00000040: a205 6cbd 3f61 08bf 499d f5be fe26 a73d
00000050: 14aa 3fbf 6ab7 d9bd a8cd 1ebf e51b 2f3e
00000060: 561d 11bf de61 23bf a4f0 04bf d3e4 89bd
00000070: e254 eabd 7343 edbe a09e a4bd 2797 0e3f
00000080: 2d14 34be 464d f23d 8325 093e c0f1 833d
00000090: b270 fcbd bba7 32be 2505 13be 75fc 063e
000000a0: 1ed1 ad3d 1d54 183e 42a9 bd3d 2042 373d
000000b0: 80e6 e2ba 92aa 09be a317 1bbe f250 29be
000000c0: 7234 943d d8bf b1bd f0b8 11bd eb5a d0bd
000000d0: a8f1 03bd c1d0 febd ce8f ecbd 2c2f 703d
000000e0: 7431 57bd 8a80 df3d 544a 68bd 34ca 04be
000000f0: c882 ffbc 4f7f afbd 7e86 5dbd 6154 2cbe
00000100: 9838 b23f 7a95 e43e c4ee ad3f 4737 d4be
00000110: 863f af3f ecd9 0abe 6a8e 233f b734 7d3f
00000120: 32b7 a23f 06a9 be3f bf47 113f a29c 963f
00000130: 463d 9c3f bacd 13bf 0e06 953e 8a79 d53e
00000140: eac0 e03d e79c d43f ddad ae3f 88cb 2abd
00000150: 8cf4 e43e f18a 113f cae7 303f 8d2b 34be
00000160: 3863 0d3f 24f9 273f 9194 9b3f 51d6 f03e
00000170: 5bfd 93bd 31d4 943f aa53 31bf 40bc 1e3f
00000180: 2515 95be 1425 323f 5edd f2be 54c1 93bd
00000190: f5fc 3ebf 7028 30be 028e 863d 89d4 263e
000001a0: 834d 1ebe 9aa8 5fbf 9c97 083f b8e2 24bf
000001b0: ab36 46bf 7a66 023f 104f 79bd 89fe 013f
000001c0: 8951 13be 65a4 c8be 8e1a 20bf 9cdd 3f3d
000001d0: ec3a 7bbd a05b 6b3c b1c3 283e a6cc a63d
000001e0: 0ddf 1cbe c48e a63e 500a a2be 207e 3e3d
000001f0: 3ab8 f23d 341f 98be 04c6 fe3e 749d d4be
00000200: 2ca1 fbbd 3c37 15bd 5b0f 063e fe98 b93d
00000210: 1618 e5bd 1d28 11be 7267 f7bd d9a4 32be
00000220: 7cae 0bbe fc0f 33bd e654 f43d 3865 f23c
00000230: 2eaf 09be d237 11be f21a b43d 50a6 06be
00000240: c04e b2bc 12ac ad3d 4d8e a7bd 18e8 9dbc
00000250: 901b 7cbc fc4d 2bbd b490 b7bd 1a5e 21be
00000260: 0854 12be 9bdb c1bd d7d5 2e3e b8de aebd
00000270: 7d1e f3bd 1c83 2f3d 2c90 473d 525d c63d
00000280: fc4d b93f 5c98 2c3f 44e8 8e3f b742 f5be
00000290: 52bf af3f a8d8 85bc e5ae d03e 4086 9e3f
000002a0: c94c 8f3f 847f 9e3f d4b9 dd3e 6649 9a3f
000002b0: 281c ae3f 29b3 c4be 3175 7a3e 16af ea3e
000002c0: 390d 29be bb19 c73f 42fe b03f 2ade d03d
000002d0: 1da0 fa3e 5d7e 013f e6ec ec3e eba7 aebd
000002e0: 3edb 1f3f a7ce 513f 4c32 b33f 5738 ca3e
000002f0: 8610 f23d cda8 8e3f d5bf eabe d122 1f3f
00000300: 79e3 a83f d74c 3d3f d39a 923f f0ed 0fbf
00000310: 172e b13f d0c0 1dbd c77d f33e 46b3 7a3f
00000320: 4443 a23f 5889 b73f 202a 263f 3062 8e3f
00000330: add5 933f 7268 ccbe 68b6 873e 95c4 023f
00000340: 5c98 4abd b2a8 d73f 901b a03f 40ad 023c
00000350: 4c86 0c3f 80c5 bc3e 2874 da3e 580f adbd
00000360: 4da8 003f 29f0 413f 920c 9b3f 4de6 f93e
00000370: d796 2c3e f1ec a63f 241e ccbe 67d6 c33e
00000380: d225 2abf 9607 07bf 95d0 35bf 88aa ecbd
00000390: 33d9 19bf 656b 84bd ddb3 07be 84a3 f9be
000003a0: 718a e6be 1b52 10bf c68a 1fbf b994 41bf
000003b0: 6c25 28bf f456 383d 62b6 aa3d 3562 1dbf
000003c0: 0d22 8fbd 16e4 fcbe 1cb4 3bbf a2d0 e43d
000003d0: 6474 8cbd 0051 313b d416 0fbd a092 af3c
000003e0: a6d0 5abd 6983 edbe d1d6 18bf b94d 0d3e
000003f0: eb0b 2e3e dab5 2dbf 250e 04be 79f8 3b3f
-0.47943532 -0.44051042 -0.6099325 -0.03957975 -0.5898526 -0.010555029 0.04249911 -0.5428933
-0.7529907 -0.6576645 -0.44356343 -0.52356774 -0.60122454 -0.6990076 -0.10815288 -0.75078285
-0.05762256 -0.53273386 -0.47971562 0.08161734 -0.74868894 -0.106306866 -0.62032557 0.17100485
-0.5668539 -0.6382121 -0.5192969 -0.06733098 -0.11441971 -0.46340522 -0.08038068 0.5569939
-0.17585821 0.11831145 0.13393216 0.064425945 -0.123261824 -0.17446797 -0.14357431 0.13182242
0.084871516 0.14875837 0.09260799 0.044740796 -0.0017311126 -0.13443974 -0.15145735 -0.16534784
0.07236566 -0.086791694 -0.03557676 -0.10173591 -0.032212883 -0.124421604 -0.11550866 0.058638737
-0.052537397 0.10913189 -0.05671151 -0.1296776 -0.031190291 -0.08569204 -0.05408334 -0.16829063
1.3923521 0.44645292 1.358849 -0.41448423 1.3691261 -0.13559693 0.6388918 0.9890856
1.2712157 1.4895332 0.567501 1.176655 1.2206199 -0.5773579 0.29106182 0.4169429
0.109742954 1.6610383 1.3646809 -0.04169801 0.44717824 0.5685263 0.6910368 -0.17594738
0.5522952 0.65614533 1.2154714 0.4703851 -0.07226058 1.1627256 -0.69268286 0.62005997
-0.29117694 0.69587827 -0.47434515 -0.07214609 -0.7460473 -0.17202926 0.065700546 0.16292013
-0.15459256 -0.8736664 0.5335634 -0.64408445 -0.77427167 0.50937617 -0.060866416 0.50779015
-0.14386572 -0.39187923 -0.6254052 0.046842203 -0.06133549 0.014365107 0.164809 0.08144502
-0.15319462 0.32530797 -0.31648493 0.046507 0.11851545 -0.29711306 0.4976045 -0.41526377
-0.122866005 -0.03642963 0.13091795 0.09062384 -0.11186235 -0.14175458 -0.120802775 -0.17445697
-0.1364078 -0.043716416 0.119302556 0.02958928 -0.13445732 -0.1418145 0.08794202 -0.1314938
-0.021766067 0.084800854 -0.081814386 -0.01927571 -0.015387431 -0.04182242 -0.08963147 -0.15758553
-0.14289868 -0.094657145 0.17073761 -0.08538574 -0.118710496 0.042849645 0.048721477 0.09685768
1.4476924 0.6741998 1.1164632 -0.47902462 1.3730261 -0.016338661 0.40758434 1.238472
1.1195308 1.2382665 0.43305838 1.205365 1.3602343 -0.38417938 0.24458767 0.45836705
-0.1650895 1.5554727 1.3827593 0.101986244 0.48950282 0.5058344 0.4627449 -0.085281216
0.6244391 0.8195595 1.3999724 0.3949611 0.11819558 1.1145264 -0.4584948 0.621625
1.3194419 0.73945373 1.1453499 -0.5622244 1.384219 -0.03851396 0.47556898 0.979298
1.2676778 1.4338789 0.6490803 1.1123714 1.1549584 -0.39923435 0.26506352 0.5108121
-0.049461707 1.6848357 1.2508411 0.007975876 0.5489242 0.3686943 0.42666745 -0.08450192
0.50256807 0.7575708 1.2113211 0.48808518 0.16854416 1.3041059 -0.39866745 0.38249514
-0.6646396 -0.5274595 -0.71021396 -0.11555964 -0.60097045 -0.064657964 -0.13252206 -0.48757565
-0.45027497 -0.56375283 -0.62321126 -0.7561756 -0.656821 0.0450048 0.08335568 -0.6147798
-0.069889165 -0.49392766 -0.733217 0.11172606 -0.06858137 0.0027056336 -0.03493388 0.021432221
-0.05342164 -0.4638932 -0.59702784 0.1379918 0.16996734 -0.6785561 -0.1289602 0.73426014

linear2.bias f4 [8]
00000000: 9666 e8be 8237 0abe f16e b23f eae7 02bf
00000010: a92e 14be 3a56 b83f e7f6 b63f c711 0ebf
-0.45390767 -0.13497737 1.3940107 -0.5113512 -0.14470924 1.4401314 1.4294099 -0.55495876

linear3.weight f4 [1, 8]
00000000: ea0e fe3e 2101 a73e f010 a83f 72fc bb3e
00000010: a0f8 a3bc 426a b03f e9d0 b13f 7e54 af3e
0.49620754 0.3261805 1.3130169 0.36716038 -0.020016015 1.3782427 1.3891879 0.3424415
