edgeric-v2/muApp4/trained_model_urllc.pt (torch, 4039 bytes, 5 tensors)

linear1.weight f4 [32, 5]
000000 51 13 de bf 59 c9 4a c1 99 cf e0 c0 70 20 0a 3f
       -1.7349645 -12.674157 -7.0253415 0.53955746
000010 a5 36 0d 41 c2 4b 8b c0 a9 26 95 c0 70 c4 85 c0
       8.825841 -4.352998 -4.6609693 -4.180229
000020 71 91 81 c0 bd ae 98 c0 b6 26 26 40 0f 05 43 c1
       -4.049004 -4.7713304 2.5961127 -12.188735
000030 f8 ee a0 c0 bf 4f e9 3f 3f 54 35 41 fa 34 5c c0
       -5.029171 1.8227462 11.333068 -3.4407334
000040 3a a0 ae bf 7d bf 7a c0 35 cc 40 c0 45 93 33 c0
       -1.3642647 -3.9179375 -3.0124638 -2.8058636
000050 f9 c6 94 c0 ac dc 8f c0 75 fe 93 c0 bb b0 84 c0
       -4.6492887 -4.4956875 -4.6248116 -4.1465735
000060 f2 7a 99 c0 40 1e 53 be 06 50 01 be e6 ac 89 be
       -4.796258 -0.20617008 -0.12628183 -0.26889724
000070 c8 e3 2c 3d f7 26 e2 be d8 f9 49 c0 dc 49 ad c0
       0.042209417 -0.44170353 -3.1558743 -5.415266
000080 63 f6 a3 bd 77 b2 61 c0 b5 db 71 c0 21 57 85 c0
       -0.08005979 -3.5265176 -3.7790349 -4.166886
000090 0a f4 8b c0 da bb 99 40 88 9e 8c c0 6c b2 92 c0
       -4.37354 4.804181 -4.394352 -4.58428
0000a0 b1 56 8a c0 83 10 92 c0 6f 31 94 40 1f 68 81 c0
       -4.3230824 -4.5645156 4.6310344 -4.04396
0000b0 47 e9 85 c0 65 70 94 c0 2f ec 85 c0 14 77 8b c0
       -4.184726 -4.63872 -4.185081 -4.358286
0000c0 8a ea 86 c0 fe e7 96 c0 6e 04 80 40 7d b6 93 c0
       -4.2161303 -4.7158194 4.0005407 -4.6160264
0000d0 31 23 99 c0 ef 70 82 c0 ce 0f 8a c0 60 a9 df bd
       -4.785546 -4.076286 -4.3144293 -0.109209776
0000e0 56 00 61 c1 b6 35 c0 c0 97 58 67 3f 10 e2 04 41
       -14.062582 -6.0065565 0.9036955 8.305191
0000f0 55 35 1c bf f2 42 b1 c0 e6 1c 46 3f e1 cf 14 c0
       -0.6101888 -5.539422 0.77387846 -2.325188
000100 f4 85 6b c0 2b f7 57 c0 35 93 3a c0 cd f2 3f 40
       -3.6800508 -3.374461 -2.9152348 2.9991944
000110 20 98 64 c0 39 29 67 c0 ef b6 53 c0 7b eb 63 c0
       -3.571785 -3.611891 -3.3080404 -3.5612476
000120 3b ea 51 c0 14 8a 82 c0 3d ec 84 c0 bf 52 7c bd
       -3.2799213 -4.0793552 -4.1538377 -0.06160235
000130 2f e5 f5 c0 9c 27 09 c0 a5 ee 7f c0 b9 da 75 c0
       -7.6842265 -2.1430426 -3.9989407 -3.8414748
000140 cc 7e 6c be 06 18 9c be fc f9 72 3e a8 1a 39 be
       -0.23095244 -0.30487078 0.23728174 -0.18076575
000150 2a f8 8a 3e 44 d0 57 c1 95 f8 75 40 2d 8f 02 c1
       0.2714246 -13.488346 3.8432972 -8.159955
000160 88 58 02 c1 0a 84 27 c1 87 28 8b c0 16 d5 91 c0
       -8.146614 -10.469736 -4.348697 -4.5572615
000170 ce b4 96 40 81 74 84 c0 c2 8f 98 c0 b2 7b 74 be
       4.709571 -4.1392217 -4.7675486 -0.23875311
000180 86 a9 d1 3e ae 86 1a be 80 59 22 be ab 8d dd be
       0.4094965 -0.15090439 -0.15854454 -0.43272147
000190 fd d4 a5 c0 fa 9f 88 c0 91 34 5c 40 89 45 a2 c0
       -5.1822495 -4.2695284 3.4407084 -5.070988
0001a0 37 c1 76 c0 e4 4c 2b c0 b1 79 88 bf 45 18 05 41
       -3.855543 -2.676568 -1.0662137 8.318425
0001b0 06 f5 e4 bf 72 2b 9d c0 ef 94 59 3f d5 93 ce c0
       -1.7887275 -4.9115534 0.8499288 -6.455546
0001c0 83 84 ea 3d 0f 94 64 c0 36 d9 8c c0 24 6e 18 be
       0.11451056 -3.5715368 -4.401515 -0.14885765
0001d0 20 38 8f 3d 82 7a c9 be 20 51 45 be 44 14 89 be
       0.06993127 -0.3935128 -0.19269228 -0.26773274
0001e0 7b ff 8b c0 e6 5d 7e 40 f4 fa 83 40 db dc cd be
       -4.3749366 3.974481 4.124384 -0.40207562
0001f0 7e 89 a7 be 99 17 a4 c0 40 de 50 40 95 3a 71 c0
       -0.32722086 -5.1278806 3.263565 -3.7692006
000200 3e 2f 82 c0 1f 06 91 c0 ce 3b 7f 40 df 99 24 c1
       -4.068267 -4.531997 3.9880252 -10.287566
000210 fe 4d 0c c1 5e 4f 2b 3f 04 62 1b 41 8c 0d 8c c0
       -8.769041 0.6691798 9.71143 -4.3766537
000220 d3 74 92 c0 88 eb 92 c0 58 7c 82 c0 40 12 c8 bd
       -4.576761 -4.5912514 -4.0776787 -0.09769106
000230 7e 32 81 c0 0e 83 92 c0 9b 49 78 c0 a4 45 91 c0
       -4.0374136 -4.578498 -3.8794925 -4.539751
000240 64 3d 89 c0 1a 7d 6c 40 5b 35 2d c1 de f3 ff c0
       -4.288744 3.6951356 -10.825526 -7.998519
000250 9f ad 17 40 c8 46 25 41 08 95 8a c0 d0 56 94 c0
       2.369972 10.329781 -4.3306923 -4.635597
000260 04 82 8c 40 2f e5 98 c0 0b 26 81 c0 7b 42 6d 40
       4.390871 -4.7779765 -4.035894 3.7071826
000270 b9 13 f7 c0 f1 19 d7 3f f0 45 6c 3f ad 0e 13 c0
       -7.7211576 1.6804792 0.92294216 -2.2977707

linear1.bias f4 [32]
000000 35 31 68 3f f7 09 8b c0 4b 4c 1f 40 15 29 3f c0
       0.90700084 -4.3449664 2.4890316 -2.9868824
000010 1d 2d 88 c0 24 67 89 bd 3a 5a 74 c0 3a e4 81 c0
       -4.255507 -0.06709126 -3.818007 -4.0591097
000020 3f fe 8a c0 ff 19 96 c0 4e 6d 95 c0 53 01 04 40
       -4.343536 -4.6906734 -4.669593 2.0625808
000030 70 90 58 c0 cf 43 59 c0 f9 c9 7d c0 56 1e 8a c0
       -3.3838158 -3.3947637 -3.9654524 -4.316203
000040 6c 0f ab be 6b 6a fe c0 4a 1b 83 c0 94 90 d7 be
       -0.33410203 -7.9504905 -4.097081 -0.42102492
000050 b0 23 75 c0 ae 0d 8e be f5 62 af c0 0c 16 23 be
       -3.8303032 -0.27744812 -5.4808297 -0.15926379
000060 51 95 84 c0 60 7d a7 c0 5a cc 82 40 4c 18 89 c0
       -4.143227 -5.2340546 4.0874453 -4.284216
000070 ed 8e 8a c0 87 7b 4b 40 37 b6 90 c0 9f 3e 72 c0
       -4.329947 3.1794145 -4.522243 -3.785072

linear2.weight f4 [8, 32]
000000 69 b7 a8 bf 94 0b 93 40 ac d9 22 c0 60 1e 22 bd
       -1.3180972 4.5951633 -2.5445356 -0.03957975
000010 29 44 8e 40 00 ef 2c bc 5d 58 4d c0 da c4 8f 40
       4.4458203 -0.010555029 -3.2085183 4.4927797
000020 bd 0b 89 40 73 18 8c 40 7b 6b 89 c0 9b 41 5b c0
       4.282683 4.3779845 -4.29437 -3.4258792
000030 82 5f 76 c0 73 46 da bd 42 7f dd bd cd a3 5e c0
       -3.8495793 -0.10657968 -0.10815288 -3.4787476
000040 a2 05 6c bd df f7 0e 41 67 ca 91 40 fe 26 a7 3d
       -0.05762256 8.935515 4.5559573 0.08161734
000050 ce 02 20 be 87 91 bc 3f 00 8b e4 bc e5 1b 2f 3e
       -0.1562607 1.4731911 -0.027898312 0.17100485
000060 a8 02 87 40 fa 5d 8c 40 c4 5f b0 3f d3 e4 89 bd
       4.2190742 4.3864717 1.3779225 -0.06733098
000070 e2 54 ea bd be a3 16 c0 7c 9c 8b 40 85 5d 92 c0
       -0.11441971 -2.353744 4.362852 -4.573916
000080 2d 14 34 be 46 4d f2 3d 83 25 09 3e c0 f1 83 3d
       -0.17585821 0.11831145 0.13393216 0.064425945
000090 b2 70 fc bd bb a7 32 be 25 05 13 be 75 fc 06 3e
       -0.123261824 -0.17446797 -0.14357431 0.13182242
0000a0 1e d1 ad 3d 1d 54 18 3e 42 a9 bd 3d 20 42 37 3d
       0.084871516 0.14875837 0.09260799 0.044740796
0000b0 80 e6 e2 ba 92 aa 09 be a3 17 1b be f2 50 29 be
       -0.0017311126 -0.13443974 -0.15145735 -0.16534784
0000c0 72 34 94 3d d8 bf b1 bd f0 b8 11 bd eb 5a d0 bd
       0.07236566 -0.086791694 -0.03557676 -0.10173591
0000d0 a8 f1 03 bd c1 d0 fe bd ce 8f ec bd 2c 2f 70 3d
       -0.032212883 -0.124421604 -0.11550866 0.058638737
0000e0 74 31 57 bd 8a 80 df 3d 54 4a 68 bd 34 ca 04 be
       -0.052537397 0.10913189 -0.05671151 -0.1296776
0000f0 c8 82 ff bc 4f 7f af bd 7e 86 5d bd 61 54 2c be
       -0.031190291 -0.08569204 -0.05408334 -0.16829063
000100 ce 04 8b c0 3e 1f 92 c0 2a 57 8b c0 96 49 a4 3d
       -4.3443365 -4.5663137 -4.35439 0.08021848
000110 6c 24 8a c0 ec d9 0a be 83 1d 8a c0 a5 db 90 c0
       -4.316946 -0.13559693 -4.3161025 -4.526812
000120 aa 15 8c c0 bb de 88 c0 c1 62 8d 40 3c 3a 8e c0
       -4.3776445 -4.277189 4.418305 -4.4446087
000130 70 7c 8f c0 fa 25 17 be 4e be ad 3d 97 cc 93 c0
       -4.48394 -0.1476058 0.08483563 -4.6187243
000140 ea c0 e0 3d 7d f3 89 c0 81 d5 88 c0 88 cb 2a bd
       0.109742954 -4.3109727 -4.2760625 -0.04169801
000150 ab bb 14 be 64 cb 22 3d 02 00 c8 3d 8d 2b 34 be
       -0.14524715 0.03974475 0.097656265 -0.17594738
000160 8c 5a 24 bd 22 93 91 c0 b2 ad 8e c0 48 33 b2 bd
       -0.040125415 -4.5492105 -4.458703 -0.08701187
000170 5b fd 93 bd c2 fa 8f c0 16 8f 93 c0 c9 8a 89 c0
       -0.07226058 -4.49936 -4.6112165 -4.2981915
000180 71 fb c0 40 de 4b 8d 40 05 19 d3 40 13 71 1e 40
       6.0306935 4.415511 6.596804 2.4756515
000190 42 13 89 40 70 28 30 be a4 38 82 40 ee 13 8b 40
       4.283601 -0.17202926 4.069414 4.346183
0001a0 0e 8c 8a 40 f9 bd 8d 40 c8 4c 8c 40 7a 6a d4 40
       4.3295965 4.42944 4.3843727 6.6379976
0001b0 fa f2 72 40 66 01 53 40 f9 8f 69 40 d4 a0 9f 40
       3.79608 3.2969604 3.6494124 4.9883823
0001c0 89 51 13 be 9f 3d 07 41 80 eb 8b 40 9c dd 3f 3d
       -0.14386572 8.452544 4.3724976 0.046842203
0001d0 37 5a 51 40 67 55 27 40 93 8b 8d bf a6 cc a6 3d
       3.2711313 2.6145875 -1.105822 0.08144502
0001e0 44 61 81 40 3c da 8f 40 25 30 9d 40 57 17 85 c0
       4.0431232 4.49539 4.912127 -4.159099
0001f0 d7 f9 82 c0 5e a2 bb 40 38 e6 dd bc 5e 57 11 40
       -4.092998 5.86357 -0.027087316 2.2709575
000200 6c 2e 87 c0 3c 37 15 bd d4 1e 7e c0 fe 98 b9 3d
       -4.2244167 -0.03642963 -3.9706316 0.09062384
000210 16 18 e5 bd 1d 28 11 be 83 1d 87 c0 d9 a4 32 be
       -0.11186235 -0.14175458 -4.2223525 -0.17445697
000220 7c ae 0b be fc 0f 33 bd e6 54 f4 3d 80 4d 82 c0
       -0.1364078 -0.043716416 0.119302556 -4.0719604
000230 5f 8d 87 c0 d2 37 11 be f2 1a b4 3d 17 75 87 c0
       -4.236007 -0.1418145 0.08794202 -4.233043
000240 c0 4e b2 bc 12 ac ad 3d 4d 8e a7 bd 18 e8 9d bc
       -0.021766067 0.084800854 -0.081814386 -0.01927571
000250 90 1b 7c bc fc 4d 2b bd b4 90 b7 bd 1a 5e 21 be
       -0.015387431 -0.04182242 -0.08963147 -0.15758553
000260 08 54 12 be 9b db c1 bd 6e 92 7b c0 b8 de ae bd
       -0.14289868 -0.094657145 -3.9308124 -0.08538574
000270 7d 1e f3 bd df e0 81 c0 2c 90 47 3d 70 26 80 c0
       -0.118710496 -4.0587 0.048721477 -4.004692
000280 43 e2 89 c0 99 08 8b c0 e0 ca 93 c0 50 6f 80 3c
       -4.30887 -4.3447995 -4.618515 0.015678078
000290 cf c1 8a c0 a8 d8 85 bc 63 84 91 c0 75 ca 88 c0
       -4.3361583 -0.016338661 -4.5474105 -4.274714
0002a0 ae 4c 90 c0 59 67 91 c0 6c 15 89 40 59 ee 8d c0
       -4.5093603 -4.5438657 4.283865 -4.435345
0002b0 4e ad 8b c0 a8 48 20 3d a4 2f 0f 3d 45 79 92 c0
       -4.3649054 0.03913179 0.034957543 -4.5773034
0002c0 39 0d 29 be 87 15 8e c0 8f 06 89 c0 2a de d0 3d
       -0.1650895 -4.440128 -4.2820506 0.101986244
0002d0 94 ca d2 bd a0 fb bb bc c9 71 05 be eb a7 ae bd
       -0.10292545 -0.022947133 -0.13031687 -0.085281216
0002e0 14 21 03 3d 75 1a 8b c0 6e 7f 89 c0 e8 31 26 be
       0.032013968 -4.3469796 -4.2968054 -0.16229975
0002f0 86 10 f2 3d 67 2c 92 c0 ab 10 8c c0 86 65 89 c0
       0.11819558 -4.56792 -4.3770347 -4.293643
000300 b1 1a 8e c0 7f 09 89 c0 ee 00 93 c0 b4 48 8a bd
       -4.440758 -4.282409 -4.5938635 -0.06752148
000310 65 e2 8a c0 d0 c0 1d bd 76 57 8f c0 9c 8a 90 c0
       -4.340136 -0.03851396 -4.4794264 -4.51692
000320 d0 48 8a c0 95 68 8b c0 14 ff 8f 40 d8 5c 91 c0
       -4.3213882 -4.3565164 4.4998875 -4.5425835
000330 92 c6 92 c0 20 a2 9c 3c 60 87 56 3d a5 cb 90 c0
       -4.5867395 0.019120276 0.052375197 -4.524859
000340 5c 98 4a bd 00 5d 8a c0 ac bb 8d c0 40 ad 02 3c
       -0.049461707 -4.3238525 -4.429159 0.007975876
000350 20 32 32 bd e3 ed 23 be 6c 34 2a be 58 0f ad bd
       -0.043504834 -0.16008715 -0.1662156 -0.08450192
000360 31 08 b8 bd dc 6b 8c c0 9a d4 8f c0 35 a3 8d bd
       -0.089859374 -4.3881664 -4.4947023 -0.06915895
000370 d7 96 2c 3e 9c 36 8c c0 96 26 8a c0 18 ec 90 c0
       0.16854416 -4.381666 -4.31721 -4.52882
000380 7b 41 81 c0 c7 1a 8c c0 2c e9 86 c0 88 aa ec bd
       -4.039243 -4.3782687 -4.2159634 -0.11555964
000390 f9 74 8e c0 65 6b 84 bd dd b3 07 be 0c d4 8a c0
       -4.451779 -0.064657964 -0.13252206 -4.3383846
0003a0 7c a2 89 c0 e7 19 8f 40 29 2b 8f c0 6b 6c 93 c0
       -4.3010845 4.471912 -4.4740186 -4.6069846
0003b0 81 3e 90 c0 f4 56 38 3d 62 b6 aa 3d 19 e6 8e c0
       -4.50763 0.0450048 0.08335568 -4.465588
0003c0 0d 22 8f bd 5b c5 34 3e 59 b0 92 c0 a2 d0 e4 3d
       -0.069889165 0.1765341 -4.584027 0.11172606
0003d0 64 74 8c bd c3 47 8a c0 d4 16 0f bd a0 92 af 3c
       -0.06858137 -4.32126 -0.03493388 0.021432221
0003e0 a6 d0 5a bd 0b 12 8a c0 31 8e 03 c1 b9 4d 0d 3e
       -0.05342164 -4.3147025 -8.222215 0.1379918
0003f0 eb 0b 2e 3e cf 11 09 c1 25 0e 04 be e2 b8 92 40
       0.16996734 -8.566848 -0.1289602 4.5850687

linear2.bias f4 [8]
000000 34 75 d0 40 82 37 0a be fa 9e 8e c0 4d cb 10 41
       6.514307 -0.13497737 -4.4569063 9.049634
000010 56 e1 87 c0 55 17 8d c0 c8 ad 8c c0 09 4c 03 c1
       -4.246257 -4.409098 -4.3962135 -8.206063

linear3.weight f4 [1, 8]
000000 c6 2c 25 40 21 01 a7 3e ec 90 8c c0 b7 85 96 40
       2.5808578 0.3261805 -4.3926907 4.7038226
000010 ee 9b 82 40 7f 77 8b c0 c4 38 8a c0 56 23 a7 be
       4.0815344 -4.358337 -4.3194294 -0.32644147
